link_predictor.pth (torch, 35464 bytes, 3 tensors)

net.0.weight f4 [64, 128]
00000000: 19a8 993d 5a8c a8bd 621a 663c d41d a0bd
00000010: f09b 653d 8831 b0bd 3431 783d 854f 1fbd
00000020: 4883 1ebd 83b2 54bd e38b 2d3c 379c 1b3d
00000030: bb17 38bd 72ef e3bd 15ad 023e 6407 e73d
00000040: 1375 513d 942b 23bd 0b5b d73c 0857 593d
00000050: 6b89 74bd 3e52 b0bb 431d 673d f296 c03c
00000060: 60dc 08bd 65bc ba3d 7173 32ba bcdc 193d
00000070: 4b23 bebd 255b b33d 8302 6c3d 7537 c33d
00000080: d9e4 493d 3f4f de3d b877 353d c771 d63d
00000090: dc01 e93d 1eb7 72bd fa5d 31bd 10f6 9c3c
000000a0: e583 743d 3dd6 a5bc c318 eabd 3622 a3bd
000000b0: 24dd 903d d24e d93c 0035 9dbd 194e 433d
000000c0: a380 9a3d dd30 2a3d c5bb 853c 7170 cabd
000000d0: fb52 733d 5580 7d3d 9f84 063d 7fde 1abd
000000e0: ea47 353d b2c8 ab3c e914 0b3c 683a ea3c
000000f0: 4978 9f3d 2fd7 b4bc 624e 0ebd 2102 bc3d
00000100: 0e19 fe3d e1fb cabd 20a2 32ba 4300 d9bd
00000110: d69e 8a3c 6141 e6bc cf05 863d b078 413d
00000120: 0291 fcbd 815c 973c 95ed 88bc a20d 69bd
00000130: 539a cabd ff1b 853d a628 b6bc 123c 81bc
00000140: 4516 18bd 4669 973c 6063 c93c 941a a13d
00000150: d30e 933d 6298 17bc ba56 8f3d 9663 873d
00000160: 7f4f 56bc 0aff 7dbc b38f afbd edfd a03d
00000170: 05e8 25bd 43c8 8a3c 5b93 c6bd 7da9 3e3a
00000180: b95f 113c 6c5b d2bd 986a e03d 2565 08bd
00000190: 02be 08bd d6d8 57bd c7b7 0b3d 537e 153c
000001a0: d1fe d93d 34cb e73b f1a5 d43c 48b5 9cbd
000001b0: afcd 1d3d 3c88 753b 9d3e c0bd e646 ee3c
000001c0: 4dae febc acd0 153d 7703 db3d 7668 b63d
000001d0: df23 cdbc b691 173d c661 e13d 45b0 aa3c
000001e0: e2cd 833c 8101 123b 0d9a 71bd b9b4 21bd
000001f0: cd07 9fbb 0185 493d 7423 ca3d e84d 0ebd
00000200: 2422 1d3d 9cf9 18bd dd6c 68bc 75d8 673d
00000210: 5b44 03bd 82c1 023d e1ec 8dbd 3d03 8abd
00000220: e03f 293d 9c2c a2bd 2829 56bc f56c 543d
00000230: 5a09 c43d bd8e 693d e6c9 683c 9509 1f3c
00000240: 974f cfbc b26c b93d 9d1f 31bd a88f 51bd
00000250: a1b1 033d 5d79 0bbe edfc 99ba 8008 293d
00000260: da8b 7c3d 4236 ea3c 1338 ea3d e188 21bc
00000270: 9182 91bd 666f ce3b 8ead 0c3d 0661 bdbd
00000280: beb3 2b3d c50b b4bd 12c6 753d 96fb 2b3d
00000290: 9989 1fbd 94a3 6abd 43bc a73c e817 b2bd
000002a0: cba6 edbb 7a8d e73d cd12 bb3c f6aa 2e3b
000002b0: d0d4 efbd 3c57 983c d49d e53d be1f b0bd
000002c0: 1db9 11be 966a a9ba e843 b1bd 611a fe3d
000002d0: 73d7 febd f00c 253c 960d cfbd bcf5 3abc
000002e0: 1983 613d d481 183d 87e1 aabd 5057 00be
000002f0: 3325 ad3c c0f8 d13c 3753 943d a56c bcbd
00000300: 1d21 66bc e32a 28bc ef36 a43c 1128 a83d
00000310: 5c8f e53c b6e3 483a 004b 54bd c36a 503d
00000320: 1486 183d 89f5 31bd 0126 9fbc 0c70 e1bd
00000330: ce59 63bd 8966 65bd 84c1 313d 02c9 95bc
00000340: e257 8f3c 0732 8dbd 199b c5bd 8e39 0f3c
00000350: f83d a5bd 21a1 2cbd 0e91 1b3d 251f 173d
00000360: 6211 eabd e5d4 4cbd 58e1 b43d 3b55 a3bc
00000370: c8f4 fa3c 1dc4 ccbd 7591 0ebd 0487 2a3c
00000380: 549e 763d f136 e33d cfc1 c3bc 51f0 623d
00000390: d1db 34bd 5234 36bc b724 a9bd f996 f63c
000003a0: 1d66 523d 7588 31bd 331f c43c 51b2 2d3d
000003b0: fc1b 563d 211a a23a ed25 423d f7ee 2fbd
000003c0: 1242 b2bd c987 843d 562c b83c 44ed 1e3d
000003d0: 9940 b23d 8a27 2f3c a1c8 863d 24db 213c
000003e0: ac10 f23c e238 8b3d 2ca3 9b3c d632 b0bd
000003f0: 2dce 6ebd 38c7 6d3d 66d0 eabd 5838 4cbd
0.07502765 -0.08229895 0.014044376 -0.07818189 0.056056917 -0.08603197 0.0605938 -0.038894195
-0.03869942 -0.051928055 0.010592434 0.037990775 -0.044944506 -0.11129655 0.12761338 0.112807065
0.05113704 -0.03983648 0.02628853 0.053061515 -0.059701364 -0.005380898 0.05642439 0.023509476
-0.03341329 0.09117965 -0.0006807363 0.037564024 -0.09284075 0.08757619 0.057619583 0.09532062
0.04929051 0.10854959 0.044303626 0.1047092 0.11377308 -0.059256665 -0.043302514 0.0191603
0.059696097 -0.020243758 -0.11430504 -0.079655096 0.07073429 0.026526842 -0.076761246 0.0476819
0.07544067 0.041550506 0.016324887 -0.09884728 0.05940531 0.061889965 0.03284132 -0.037809845
0.044258036 0.020969722 0.008488872 0.028592303 0.077866144 -0.022075264 -0.03474272 0.091800936
0.124071226 -0.09911323 -0.00068143196 -0.10595753 0.016921442 -0.028107347 0.06544077 0.047234237
-0.123323455 0.018476726 -0.01671485 -0.056897767 -0.09892716 0.064994805 -0.02223618 -0.015775714
-0.037130613 0.018482815 0.024583519 0.078663975 0.07180562 -0.0092526395 0.06998964 0.066107914
-0.013080477 -0.015502701 -0.0857233 0.078609325 -0.040504474 0.016941195 -0.096960746 0.00072731805
0.00887292 -0.102713436 0.10957831 -0.033299584 -0.03338433 -0.052697025 0.03411081 0.009124356
0.106443055 0.0070737842 0.025958033 -0.07651764 0.038526233 0.0037465235 -0.093869425 0.029086541
-0.031088972 0.036575958 0.1069402 0.08906643 -0.025041519 0.037004195 0.11004977 0.020836005
0.016089384 0.0022278728 -0.058984805 -0.03947899 -0.004853225 0.049199108 0.098700434 -0.034742266
0.038362637 -0.03734742 -0.014186111 0.056602914 -0.03204761 0.031922825 -0.06929947 -0.06738899
0.04132068 -0.07918665 -0.013071336 0.051861722 0.09572096 0.05702089 0.014208293 0.009706874
-0.025306506 0.09053935 -0.04324304 -0.051162392 0.032151822 -0.13620515 -0.0011748351 0.04126787
0.06165681 0.028590325 0.114364766 -0.009859295 -0.07104982 0.006299901 0.034345202 -0.092470214
0.041919462 -0.08791307 0.060003348 0.041987978 -0.038949583 -0.057284907 0.020475512 -0.08695966
-0.0072525493 0.113062814 0.022836113 0.0026652194 -0.11710513 0.018596284 0.11211744 -0.08599804
-0.14230771 -0.0012925442 -0.0865553 0.12407375 -0.124434374 0.010073885 -0.10110013 -0.011411127
0.055056665 0.03723319 -0.08343797 -0.12533307 0.021135902 0.025631309 0.072424345 -0.0920041
-0.014045981 -0.010264131 0.020045726 0.08210767 0.02802246 0.0007663326 -0.051829338 0.050883066
0.037237242 -0.04344705 -0.019427301 -0.11007699 -0.055505566 -0.05600599 0.04339744 -0.018284325
0.01749796 -0.068943076 -0.09648723 0.008741749 -0.0806846 -0.042145852 0.03798013 0.036894936
-0.11429097 -0.05000772 0.088320434 -0.019938102 0.030634299 -0.09998343 -0.034806687 0.010408167
0.060209587 0.110944636 -0.023896126 0.055404965 -0.044154946 -0.011120873 -0.08258956 0.030101286
0.051366914 -0.043343026 0.023940658 0.042406384 0.05227278 0.0012367406 0.04739945 -0.042952504
-0.08704008 0.064712115 0.022482079 0.038800493 0.08703727 0.010690579 0.06581236 0.009878907
0.029548965 0.06797959 0.018998705 -0.08603446 -0.058302093 0.058051318 -0.1146553 -0.04985842

net.0.bias f4 [64]
00000000: ffd3 9c3d a42f 423d 9ce1 9e3d 2738 5c3d
00000010: 0fae 623d d4ef 98bc c627 2fbd bb9e 0bbd
00000020: b64e 733d 822a 02bd a871 ac3d ecb7 b33d
00000030: a8e6 9d3d c99f 9b3d 5f56 353c 5f66 393c
00000040: 9c11 aa3d 0493 c83b 0895 ed3d d0f0 ca3d
00000050: 34b4 f6bc b5cf 1f3c 937e b3bd 0f7d 20bd
00000060: 47ae 7b3d fa71 b63c c0f2 993d 1a4f 903d
00000070: e27a 893d afc3 1bbc d04a 833b 5d99 743c
00000080: 7111 833d 877a fb3c aaca 513d 1e03 3b3d
00000090: 35a1 8f3d 2b43 a63d fcc1 323d b4e7 58bd
000000a0: 1eff bebc 70f5 36bc ecd4 f3bc 880b cd3c
000000b0: c16f b13d 48f2 db3d acb7 bd3d 4f36 943c
000000c0: b5dc 573d c1d4 c73d 99fe c73d 734f 753d
000000d0: 2c34 873d 2ccf afbc 1ab2 95bc 1bc9 e0bc
000000e0: 6a1a e93d 480b 333b 57fc cf3d 170d b43d
000000f0: bedf 0dbd 6559 7a3c adc0 4a3d eb2e 3a3d
0.076576225 0.047408715 0.07757875 0.05376449 0.055341776 -0.018669046 -0.04276254 -0.034086924
0.059401236 -0.03177882 0.08420116 0.08775315 0.0771001 0.07598836 0.011067956 0.011315911
0.0830414 0.0061210413 0.11600691 0.099092126 -0.030115224 0.009754111 -0.087643765 -0.039181765
0.0614455 0.022271145 0.07517004 0.070463374 0.06712891 -0.009507104 0.004006721 0.014929143
0.06399811 0.030698074 0.051218666 0.04565727 0.0701317 0.0811828 0.04364203 -0.052955344
-0.023315009 -0.011166915 -0.029764615 0.025029913 0.086638935 0.10739571 0.09263548 0.018092303
0.052700717 0.097573765 0.097653575 0.05989022 0.06601748 -0.021461092 -0.018273402 -0.027439645
0.11381991 0.0027319957 0.10155552 0.08791559 -0.034637205 0.015280102 0.049500156 0.0454549

net.2.weight f4 [1, 64]
00000000: cad0 a43d 35d0 10be 9896 88bd 1887 2a3e
00000010: 9cf4 b93d a8c3 b9bd 7e51 f9bd 93ec 8fbd
00000020: 8a6b c8bd 3651 a4bd 0445 093e 0eb4 27bd
00000030: e877 283d d755 13be 630d f1bd 7e12 1ebe
00000040: 7b37 18be cfd1 c6bd d1b7 043e f4bb 99bd
00000050: 82b7 b4bd 1abe 443d ba70 a0bd 2d84 0fbe
00000060: 6091 a0bd eede 633d e66a 193e cddd 543d
00000070: 8088 e33d 5f32 19be ec06 053e 8b82 0f3e
00000080: 0af7 223d a1b1 cb3d 27ec 84bd bc90 ef3d
00000090: fed5 28bd 2cca 05be 54bd b0bd 53f4 de3d
000000a0: 79f4 0a3e bf83 dabd 6af6 983d bca8 4b3d
000000b0: 917e efbd 1ed9 0c3e 9667 67bd edde 52bd
000000c0: d021 05be 1972 d73d 643f 1c3e fae3 2d3e
000000d0: 5745 a8bd eb20 9f3d db34 c6bd 1110 163e
000000e0: 2aae 133e 6dd7 0dbe 5189 6a3d 27c2 193e
000000f0: 890f 81bd fd61 01be a2aa 9e3d 226d 173e
0.08047636 -0.14141925 -0.066693485 0.16653097 0.09079859 -0.090705216 -0.121737465 -0.07027545
-0.097861364 -0.08023302 0.13405234 -0.040943198 0.041129977 -0.14388214 -0.117701314 -0.15436742
-0.14864914 -0.097079866 0.12960745 -0.07506552 -0.08824064 0.048032857 -0.07834001 -0.14015265
-0.07840228 0.055632524 0.14982185 0.05196934 0.1111002 -0.14960621 0.12990922 0.14014642
0.039786376 0.099459894 -0.06490355 0.11697528 -0.041219704 -0.13065404 -0.086298615 0.10886445
0.13569821 -0.1066966 0.07468875 0.049721465 -0.116940625 0.13754699 -0.05649527 -0.05148213
-0.1300118 0.10519809 0.15258557 0.16981497 -0.082163505 0.077699505 -0.0967805 0.14654566
0.14421907 -0.1385171 0.05725986 0.1501547 -0.06301791 -0.12635036 0.077473894 0.14787725
